Assets/Models/Move To Target.onnx (onnx, 72501 bytes, 7 tensors)

network_body._body_endoder.seq_layers.0.weight f4 [128, 1]
0	0x4000370e	2.0033603
1	0xbf58a991	-0.8463374
2	0xbf49b398	-0.78789663
3	0xbe722480	-0.23646736
4	0xbe9f94cf	-0.3116822
5	0x3edea1ca	0.4348281
6	0x3ecf8b70	0.4053607
7	0xbf752f9e	-0.95775783
8	0xbfa921fa	-1.3213494
9	0x3eccf07e	0.4002723
10	0xbf9a6a26	-1.2063644
11	0x3f756614	0.95858884
12	0xbda7f562	-0.082011
13	0x3da5e86e	0.08100973
14	0xbf942d57	-1.1576337
15	0x3eb94bd5	0.36190668
16	0xbec5b9d6	-0.38618344
17	0xbfc50aad	-1.5393883
18	0xbf3034c2	-0.688305
19	0x3dad3cdb	0.08458873
20	0x3f2e0836	0.6798128
21	0x3f9412a4	1.1568189
22	0x3f21e759	0.63243634
23	0xbfb02d22	-1.3763773
24	0x3e0253d3	0.12727289
25	0x3fa8e57e	1.3195035
26	0xbf36b1e0	-0.71365166
27	0x3e3ca5e2	0.18422654
28	0x3fa19ba8	1.2625628
29	0xbfd1d60c	-1.6393447
30	0x3c97ab1c	0.018514208
31	0x3f75529d	0.9582918
32	0x3f436233	0.76321715
33	0xbf7c85d2	-0.98641694
34	0x3f8af9dd	1.0857502
35	0xbe8c0f76	-0.27355546
36	0x3dd536a3	0.10410812
37	0xbf4b3e9a	-0.793924
38	0xbf5335d6	-0.8250402
39	0x3ebfada8	0.37437177
40	0x40339173	2.8057525
41	0x3f8e0207	1.1094369
42	0xbf2036b0	-0.62583447
43	0x3f1837ae	0.5945996
44	0x3ffb8792	1.9650748
45	0xbf2131f4	-0.6296685
46	0x3f3a2095	0.72705966
47	0x3f48aee3	0.78391856
48	0xbeb4433b	-0.35207543
49	0xbe75a472	-0.23988512
50	0x3fb0abf1	1.3802472
51	0xbfb464ba	-1.4093239
52	0x3e0a187c	0.13485903
53	0x3edf7ec5	0.43651405
54	0x3f903640	1.1266556
55	0x3f6189fd	0.8810118
56	0x3faeb133	1.3647827
57	0xbf8d8fab	-1.1059469
58	0xbf6b86c3	-0.92002505
59	0xbf10ee05	-0.5661319
60	0x3fa2fd34	1.2733521
61	0x3eb083da	0.34475595
62	0x3e96e4a2	0.29471308
63	0xbe3cc41d	-0.18434186
64	0xbfe65ef1	-1.7997724
65	0x3f85a1c8	1.0439997
66	0xbf3f1c7e	-0.7465285
67	0xbef58892	-0.47955757
68	0x3f911e6b	1.1337408
69	0xbedd3f43	-0.43212327
70	0x3e3758ae	0.17904922
71	0xbe263c9e	-0.16234061
72	0xbfa73485	-1.3062903
73	0x3f3423c1	0.70367056
74	0xbfb16341	-1.3858415
75	0x3f4bae6a	0.7956301
76	0xc00c8e3a	-2.1961808
77	0xbd9953c5	-0.07486681
78	0x3e0bcb24	0.13651711
79	0xbf343cfa	-0.7040554
80	0x3e58dc1c	0.21177715
81	0xbdd70c10	-0.105003476
82	0xbed13e66	-0.4086792
83	0xbf069267	-0.5256714
84	0x3f5a75a4	0.85335755
85	0x3fb5a84e	1.4191988
86	0x3ca83bb2	0.020536277
87	0x3f91307c	1.1342921
88	0x3fda76a7	1.706746
89	0x3f29c836	0.6632112
90	0xbf816d78	-1.0111532
91	0x3ebc6a4c	0.36799848
92	0xbe5171fb	-0.20453636
93	0xbd5fdc03	-0.05465318
94	0xbfbb8c2b	-1.4652151
95	0xbe8bf143	-0.27332506
96	0x3db88597	0.09009855
97	0x3fa27651	1.2692357
98	0x3dbc0752	0.09181084
99	0xbda4da3b	-0.08049437
100	0xbf8ba44a	-1.0909512
101	0x3d8921ce	0.06695901
102	0xbe8ae24f	-0.27125785
103	0x3dcc5237	0.09976619
104	0xbe267f24	-0.16259438
105	0x3e1b8a3e	0.15189454
106	0xbf66b05b	-0.9011285
107	0xbe69fbde	-0.22849986
108	0xbe9576b3	-0.29192123
109	0xbfac8397	-1.3477658
110	0xbd991c10	-0.074760556
111	0xbf3df93a	-0.74208415
112	0xbf81c0fd	-1.013702
113	0x3e830c92	0.25595528
114	0xbddfd393	-0.109290265
115	0xc003facf	-2.0621831
116	0x3f98424e	1.1895235
117	0xbda52361	-0.080633886
118	0x3cf45d63	0.029829687
119	0x4015347e	2.3313289
120	0xbf2fb815	-0.6864026
121	0xbf92c0cf	-1.146509
122	0xbf4a00b4	-0.7890732
123	0xbfe8e76b	-1.8195623
124	0x3c1012f5	0.008793582
125	0xbf034810	-0.51281834
126	0x3ef3f806	0.47650164
127	0x3f8884df	1.0665549

network_body._body_endoder.seq_layers.0.bias f4 [128]
0	0x3e0b207f	0.13586615
1	0x3ddafd2f	0.10692822
2	0x3c0ec69b	0.008714343
3	0x3d80cf9a	0.06289597
4	0x3de825ba	0.11335321
5	0xbde198ab	-0.11015447
6	0xbe110863	-0.14163356
7	0xbdd0d487	-0.101967864
8	0x3dd4c5dc	0.10389301
9	0xbe047af6	-0.12937531
10	0x3db7e608	0.08979422
11	0xbd82d871	-0.06388939
12	0x3e20ab96	0.15690455
13	0xbe3a3b30	-0.1818664
14	0x3e165c57	0.14683662
15	0xbde489de	-0.111591086
16	0xbdf67c5d	-0.12035439
17	0x3dead62d	0.11466632
18	0x3ded08a8	0.11573917
19	0x3e26428e	0.16236326
20	0xbd0fa869	-0.035072718
21	0x3d9dd749	0.07707078
22	0xbde733a7	-0.11289149
23	0xbd8f12b0	-0.06985986
24	0xbe2c14cd	-0.1680481
25	0xbd57b767	-0.05266514
26	0x3db9ac27	0.090660386
27	0x3e438708	0.19094479
28	0xbdd6931f	-0.1047728
29	0x3d5995c6	0.05312135
30	0xbe3a9405	-0.18220527
31	0xbd8b6b1c	-0.06807539
32	0xbcef3954	-0.02920214
33	0xbd52bd52	-0.05145008
34	0xbdb717cc	-0.08940086
35	0xbd94a843	-0.07258656
36	0x3e1e2391	0.15443255
37	0xbccfd419	-0.02536969
38	0x3deeb85c	0.116562575
39	0xbd96cc0d	-0.07363138
40	0x3da86644	0.082226306
41	0xbc747b47	-0.01492197
42	0xbdc6e31b	-0.09711286
43	0xbde79d88	-0.113093436
44	0x3dbed60f	0.09318172
45	0x3e1363f1	0.14393593
46	0xbd022a88	-0.031778842
47	0xbcbbde60	-0.022933185
48	0xbe110c82	-0.14164928
49	0x3dee664c	0.11640605
50	0xbd0c72bf	-0.034289118
51	0xbce57525	-0.02800996
52	0xbe2513a9	-0.16120781
53	0xbd68066d	-0.056646753
54	0xbd8d9d4f	-0.0691477
55	0xbdd4e423	-0.10395076
56	0x3de2d94d	0.11076603
57	0x3d06c21d	0.032899965
58	0xbe0f30cf	-0.13983463
59	0xbd6633d5	-0.056201775
60	0x3df9fd05	0.12206463
61	0xbde313a1	-0.11087728
62	0x3d713ed7	0.05889782
63	0x3e331c42	0.17491248
64	0x3df05907	0.117357306
65	0x3d4e98d6	0.050438724
66	0x3dc58b1e	0.09645675
67	0x3d96d873	0.07365503
68	0xbda68c3c	-0.08132216
69	0xbdc8bf7c	-0.09802148
70	0xbe2f0ffe	-0.17095944
71	0xbdb35f12	-0.087583676
72	0xbcedab43	-0.029012328
73	0xbdebc11c	-0.11511442
74	0x3e08dc80	0.13365364
75	0xbdd10384	-0.10205749
76	0x3cc15271	0.023598881
77	0xbe162409	-0.14662184
78	0x3dedc3ab	0.11609586
79	0x3db3cd86	0.08779435
80	0xbd173f7b	-0.036925774
81	0x3e387eb9	0.18017091
82	0x3deab0df	0.11459517
83	0xbdb60328	-0.08887321
84	0xbd2fdfa1	-0.04293788
85	0x3c892c9d	0.016744906
86	0x3e34a0b8	0.17639434
87	0xbd9ca6a8	-0.07648975
88	0x3dc0fe7b	0.09423538
89	0xbdebc9ac	-0.11513075
90	0x3dc33f99	0.09533615
91	0xbdbf16a8	-0.09330493
92	0x3e12269f	0.14272545
93	0xbe1cf53a	-0.15327922
94	0x3c92737a	0.01787733
95	0x3e0ea97c	0.1393184
96	0x3e1bd15b	0.15216582
97	0x3dcfb785	0.101424254
98	0x3e227422	0.15864614
99	0xbe04f982	-0.12985805
100	0xbc127ffc	-0.008941647
101	0x3e206f43	0.15667443
102	0x3e19e2ec	0.1502797
103	0xbe1eabcc	-0.15495223
104	0x3e3869f1	0.18009163
105	0xbde7a92b	-0.11311563
106	0xbd4c5070	-0.0498814
107	0xbdc0c738	-0.09412998
108	0xbe2fa3f6	-0.1715239
109	0x3d7ab8d7	0.061211433
110	0x3e350b22	0.17680028
111	0xbcb9baf4	-0.022672154
112	0xbd8df47a	-0.06931396
113	0x3de494b5	0.11161176
114	0x3e1c02b0	0.152354
115	0x3de719e5	0.11284236
116	0xbcb96699	-0.02263193
117	0x3dcbacd2	0.09945072
118	0xbe35b0ad	-0.17743178
119	0x3d4fc5f6	0.0507259
120	0x3dcbab97	0.099448375
121	0xbddf2c3e	-0.108971104
122	0x3d48c7b1	0.049018566
123	0xbd5d07db	-0.05396257
124	0x3e379f6d	0.1793191
125	0x3dabf89c	0.08397028
126	0xbddee764	-0.10883978
127	0xbd2ac7c5	-0.04169442

network_body._body_endoder.seq_layers.2.weight f4 [128, 128]
0	0xbe0a2c70	-0.13493514
1	0x3cd3fb83	0.025876766
2	0x3c564ac5	0.01307935
3	0x3dcaa98b	0.09895619
4	0xbe5ad713	-0.21371107
5	0x3cd829d1	0.026387127
6	0x3d10e1cf	0.035371598
7	0x3dd17e94	0.10229221
8	0xbafd9ac1	-0.0019348488
9	0xbc2bdeaa	-0.010490099
10	0x3d06561f	0.032796975
11	0xbd201702	-0.039084442
12	0xbdbb6490	-0.0915004
13	0xbb9d5053	-0.004800835
14	0xbe5d0c2a	-0.21586671
15	0x3e0c23fe	0.13685605
16	0x3cbb9887	0.02289988
17	0xbd4ac506	-0.049504302
18	0xbde37432	-0.11106147
19	0xbe24794d	-0.16061898
20	0x3d34dc9c	0.044155702
21	0x3e1c9072	0.15289477
22	0x3df01dcd	0.11724434
23	0x3e50e60d	0.20400257
24	0x3c80b8f9	0.015713202
25	0x3d4bea17	0.049783792
26	0xbd0b0521	-0.03394044
27	0xbd3fecba	-0.04685662
28	0xbcf1bbba	-0.02950846
29	0xbc12a871	-0.008951292
30	0x3ddedc7f	0.108819
31	0xbc94998e	-0.018139627
32	0xbd8201b0	-0.06347978
33	0xb92d1d2e	-0.00016509436
34	0x3e3a3290	0.1818335
35	0xbcd45349	-0.02591862
36	0x3d3d94d6	0.04628452
37	0x3de97ce6	0.114007756
38	0x3dc3c587	0.0955916
39	0x3b919a8d	0.0044434727
40	0x3e102662	0.14077142
41	0xbca5b022	-0.020225588
42	0x3bef78f6	0.007308121
43	0xbc823186	-0.015892755
44	0x3d94555a	0.07242842
45	0x3cc137d7	0.023586197
46	0xbe19160d	-0.14949818
47	0xbe10536e	-0.14094326
48	0xbde6b185	-0.11264328
49	0xbd4aecd6	-0.04954227
50	0x3e1da4eb	0.15394942
51	0x3be18b51	0.006883063
52	0xbd7c87ed	-0.061653066
53	0xbd8e5b7a	-0.069510415
54	0xbdec37f5	-0.115341105
55	0xbda14a8b	-0.07875546
56	0x3e3bd99f	0.18344735
57	0x3c104c51	0.008807258
58	0xbe318e90	-0.1733954
59	0xbd66c1e0	-0.056337237
60	0x3d30f112	0.043198653
61	0xbd75ecb3	-0.060040187
62	0x3da98174	0.08276644
63	0xbbea4219	-0.0071489927
64	0xbd788b24	-0.06067957
65	0xbdcc620a	-0.09979637
66	0xbd6a6d51	-0.05723316
67	0xbc186814	-0.009302158
68	0x3d993dc9	0.07482488
69	0x3b89a523	0.004200594
70	0x3e14ac83	0.14518933
71	0xbd01c31b	-0.031680208
72	0xbdb8b372	-0.090186015
73	0x3e6d130e	0.231518
74	0x3da3826f	0.079838626
75	0x3cc0a1e6	0.0235147
76	0xbb674a50	-0.0035292096
77	0x3deeddf4	0.11663428
78	0x3d104e8a	0.03523115
79	0xbc5d1db0	-0.013495848
80	0x3d42faaf	0.04760235
81	0x3cba657f	0.022753475
82	0xbc835f31	-0.016036602
83	0xbc9d18eb	-0.01917692
84	0xbd317f3c	-0.04333423
85	0x3d9752c3	0.073888324
86	0xbde6820c	-0.11255273
87	0xbdb1fca1	-0.08690763
88	0x3d80a8fa	0.0628223
89	0x3e3a9ac8	0.18223107
90	0x3e097954	0.1342519
91	0x3d20fd92	0.039304323
92	0xbd680d68	-0.05665341
93	0x3e3e6157	0.1859182
94	0x3c0a1e06	0.00843001
95	0xbcda04d6	-0.026613634
96	0xbd902b5e	-0.07039522
97	0xbd5922e2	-0.053011782
98	0xbdf11b29	-0.117727585
99	0xbd35d909	-0.044396434
100	0xbcea2c11	-0.028585466
101	0xbdbcff0f	-0.09228336
102	0xbc21f954	-0.009886105
103	0xbb5f71fa	-0.0034095035
104	0xbdb0c4bf	-0.08631276
105	0xbd5ebba3	-0.054378163
106	0x3dd380e8	0.10327321
107	0xbdb57b75	-0.08861438
108	0x3d0c718d	0.034287978
109	0xbdd1671e	-0.10224746
110	0xbddbaa1d	-0.10725806
111	0x3da6e11a	0.081484035
112	0xbd279086	-0.040909313
113	0xbd218b80	-0.03943968
114	0xbddd8f6d	-0.10818372
115	0x3d92f491	0.071755536
116	0xbcce64e8	-0.0251946
117	0x3ca539c2	0.020169143
118	0x3c8ec934	0.017429926
119	0xbda9270f	-0.08259403
120	0xbd4a95bc	-0.049459204
121	0x3df458fb	0.11931034
122	0xbc03f3b4	-0.008053709
123	0x3ddd12a4	0.10794571
124	0xbe837846	-0.256777
125	0x3de23143	0.11044552
126	0xbd4452d0	-0.04793054
127	0xbe27c1b8	-0.16382492
128	0x3d4cfe9a	0.050047494
129	0xbe289c78	-0.16465938
130	0xbd49dfa8	-0.04928556
131	0xbd848527	-0.06470709
132	0xbd79bc32	-0.060970493
133	0x3c92bf0f	0.01791337
134	0xbb459551	-0.0030148814
135	0x3d123d21	0.03570283
136	0xbc33d337	-0.0109756505
137	0xbc152fa7	-0.0091055995
138	0xbdecfbb6	-0.115714476
139	0xbd8a6be4	-0.0675886
140	0xbe144ba5	-0.14481981
141	0xbdbd597c	-0.092455834
142	0xbe52f255	-0.20600255
143	0xbd5ad4db	-0.05342565
144	0x3c773ebe	0.0150906425
145	0xbdaf7f14	-0.0856916
146	0x3de6d748	0.112715304
147	0xbe0fbf73	-0.14037876
148	0x3a49dab6	0.0007700132
149	0xbd5c6279	-0.05380485
150	0xbe03e4f2	-0.12880304
151	0xbdcb34db	-0.09922191
152	0x3e308c38	0.17240989
153	0xbc438b4f	-0.011935069
154	0x3c0ed1a2	0.008716973
155	0xbdeab934	-0.11461106
156	0x3c8f13c4	0.01746548
157	0xbda46342	-0.080267444
158	0x3e2bdb4e	0.16782877
159	0xbd891151	-0.06692756
160	0xbe01148c	-0.12605494
161	0x3c81651b	0.015795281
162	0x3d02454b	0.031804364
163	0x3d4b513f	0.04963803
164	0xbdf20b30	-0.1181854
165	0x3d2bf9c8	0.041986257
166	0xbd3299ec	-0.043603823
167	0xbb46d922	-0.0030341824
168	0xbdf27403	-0.11838534
169	0xbdc6f496	-0.0971462
170	0xbdf36dfc	-0.11886212
171	0xbd9c5aa4	-0.07634476
172	0xbc02d020	-0.007984191
173	0x3deb2b44	0.11482862
174	0xbe239eb1	-0.15978505
175	0x3e0f184e	0.13974115
176	0x3d903c13	0.07042708
177	0xbc7149a6	-0.014727032
178	0x3b750c4d	0.0037391365
179	0x3c3c554a	0.011494944
180	0x3df9a552	0.121897355
181	0x3d845432	0.064613715
182	0x3c453dfa	0.012038702
183	0x3e182571	0.14858033
184	0xbdacafdd	-0.08431981
185	0xbd3a7826	-0.04552474
186	0xbbf69f0a	-0.007526283
187	0x3e141f26	0.14465007
188	0xbcd815d4	-0.026377596
189	0xbe0d5fdb	-0.13806097
190	0xbc886383	-0.016649013
191	0xbd4057e2	-0.04695881
192	0xbe02cf5d	-0.12774415
193	0xbdb1a37c	-0.0867376
194	0x3e0d36eb	0.13790481
195	0x3cf512f5	0.029916266
196	0x3e07d125	0.13263376
197	0x3c8fc0f1	0.017548056
198	0x3e179996	0.14804682
199	0x3da1d103	0.07901194
200	0xbda90d07	-0.08254438
201	0xbdcc2537	-0.09968036
202	0x3b274a13	0.002552633
203	0x3de420b1	0.11139048
204	0x3e034110	0.12817788
205	0x3e672a9f	0.22574852
206	0xbe184662	-0.14870599
207	0xbd3e776c	-0.04650061
208	0xbb112fb3	-0.0022153675
209	0xbe051a93	-0.12998419
210	0xbc718b81	-0.014742733
211	0x3d754be0	0.059886813
212	0x3daec6d7	0.085340194
213	0x3b4596ff	0.0030149815
214	0xbe578be9	-0.21049465
215	0xbcf19655	-0.02949063
216	0xbda3eeee	-0.080045566
217	0x3cbcdd4f	0.023054747
218	0x3e0a5ae1	0.1351123
219	0xbc599614	-0.01328041
220	0x3d431731	0.04762954
221	0x3e476f1a	0.19475976
222	0x3d0bd5a6	0.034139298
223	0x3c690ae7	0.014223791
224	0x3d7d2fda	0.061813213
225	0x3e0e2203	0.13880162
226	0x3bcff5f4	0.0063464586
227	0x3dd024b3	0.1016325
228	0x3af8d0c5	0.0018983117
229	0x3bebf873	0.0072012483
230	0x3d94d33e	0.07266854
231	0x3d7df0a5	0.061997075
232	0xbcf9a8b8	-0.03047596
233	0x3daeb757	0.08531063
234	0x3e036e4f	0.12835048
235	0x3d634caa	0.055493034
236	0x3bf87eee	0.0075834906
237	0xbd2cd937	-0.04219934
238	0x3cfb32d3	0.030663883
239	0x3e059205	0.13043983
240	0x3cef3e00	0.029204369
241	0xba5497aa	-0.0008109758
242	0xbe4fd68f	-0.20296691
243	0x3d216627	0.03940406
244	0x3cb0287b	0.021503678
245	0xbcd14391	-0.025544913
246	0x3ec4032c	0.3828367
247	0xbcf6d60c	-0.030131362
248	0x3d924779	0.071425386
249	0xbc26525b	-0.010151471
250	0x3c951390	0.018197805
251	0xbd2e5618	-0.042562574
252	0xbe9a7d9b	-0.30173954
253	0xbe11aa72	-0.14225176
254	0xbc08d3a4	-0.00835124
255	0xbd7452e6	-0.05964937

network_body._body_endoder.seq_layers.2.bias f4 [128]
0	0xbd92807e	-0.07153414
1	0xbdf13f37	-0.117796354
2	0xbd95bff5	-0.073120035
3	0xbdeb5802	-0.114913955
4	0xbdc4f473	-0.096169375
5	0xbe0cde0c	-0.13756579
6	0x3dc305d5	0.09522597
7	0x3db9950b	0.09061631
8	0xbe031d66	-0.12804183
9	0x3e021258	0.1270231
10	0xbb9c69b2	-0.004773342
11	0x3d99e94c	0.07515201
12	0x3e086e25	0.13323267
13	0xbdab9ff5	-0.08380119
14	0x3d252524	0.040318623
15	0xbd6eecf8	-0.05833146
16	0x3dd048b1	0.10170115
17	0xbda9b2cd	-0.08286057
18	0xbdc0fd30	-0.09423292
19	0x3d450cf5	0.04810806
20	0x3dc92135	0.09820787
21	0x3df6f41d	0.1205828
22	0xbda47c73	-0.08031549
23	0x3df8743b	0.12131544
24	0xbdb5328f	-0.08847534
25	0xbd843c71	-0.06456841
26	0xbd878c29	-0.0661853
27	0x3d9ca48b	0.076485716
28	0xbccb88a4	-0.024845429
29	0xbdc8e80c	-0.098098844
30	0xbe10ec0d	-0.14152546
31	0xbdd8cd0b	-0.10585984
32	0xbdf0a644	-0.11750463
33	0xbda36fd4	-0.07980314
34	0xbd8fdad0	-0.07024157
35	0x3de23cf3	0.110467814
36	0xbd8615c8	-0.06547123
37	0xbe07a01d	-0.13244672
38	0x3d8f8376	0.07007496
39	0xbdfb2a42	-0.122639194
40	0x3dbda109	0.09259231
41	0xbd7a26f3	-0.0610723
42	0x3dca53f8	0.09879297
43	0x3e1b75aa	0.15181604
44	0x3a93e6fd	0.001128405
45	0x3dc86893	0.09785571
46	0xbde60f22	-0.11233355
47	0xbd86a36d	-0.0657414
48	0x3b263059	0.0025358407
49	0x3d8f977f	0.070113175
50	0xbb7e285d	-0.0038781383
51	0xbdfa55bd	-0.122233845
52	0xbdee106b	-0.11624225
53	0x3d9e5496	0.07730977
54	0xbe0724aa	-0.1319758
55	0x3df6515e	0.12027238
56	0xbdf5058f	-0.11963951
57	0x3e05d5d2	0.13069847
58	0x3dc1ad85	0.09456924
59	0xbcf93c1e	-0.030424174
60	0x3e3010a5	0.1719385
61	0x3e0cac81	0.1373768
62	0xbde71b84	-0.11284545
63	0xbd8269d3	-0.063678406
64	0x3e0d321d	0.13788648
65	0x3de271ec	0.11056885
66	0x3d55eca0	0.052227616
67	0xbdf3bf41	-0.11901713
68	0x3db55c53	0.088555
69	0x3d80c142	0.06286861
70	0x3d53f7d2	0.05175001
71	0x3dde731a	0.10861798
72	0x3dcb7dae	0.09936081
73	0x3df14e94	0.11782566
74	0xbc8f4bf8	-0.01749228
75	0x3d7d731f	0.061877366
76	0x3d418b29	0.047251854
77	0xbd695fd3	-0.05697615
78	0x3d856647	0.065136485
79	0x3d8dda6e	0.06926428
80	0x3dae3547	0.085062556
81	0x3ddac0b6	0.10681288
82	0xbd935b25	-0.07195119
83	0x3df4b5e0	0.119487524
84	0xbbfeca94	-0.007775614
85	0xbd9e2a6d	-0.07722936
86	0xbe0980e7	-0.13428079
87	0x3cd3a6d0	0.025836378
88	0xbe0ac135	-0.13550265
89	0xbbeb6b7f	-0.0071844454
90	0xbe0d55bf	-0.13802241
91	0xbd5c43a5	-0.05377545
92	0xbe1359a8	-0.1438967
93	0x3d978ec7	0.074002795
94	0x3de56ca0	0.11202359
95	0xbce8532b	-0.02835997
96	0xbded04f8	-0.11573213
97	0xbd8c6a99	-0.068562694
98	0xbdd669bd	-0.10469387
99	0xbdd596e0	-0.10429168
100	0xbd6f24a7	-0.058384564
101	0xbd5d2f3b	-0.05400012
102	0xbd82696a	-0.063677624
103	0xbdc4fda9	-0.09618694
104	0x3dcc41ca	0.09973486
105	0x3da27bef	0.07933795
106	0xbc69a87e	-0.014261363
107	0x3e31f93c	0.17380232
108	0xbe1286e3	-0.14309268
109	0x3df8ee62	0.12154843
110	0x3d320a81	0.04346705
111	0xbdc72e14	-0.097255856
112	0xbd251aa8	-0.040308625
113	0x3dd7b9d8	0.10533494
114	0xbe075948	-0.13217652
115	0x3de30dc6	0.110866114
116	0xbdef052a	-0.11670907
117	0xbd77ffdc	-0.06054674
118	0xbdd40d6c	-0.103541225
119	0xbe179122	-0.14801458
120	0xbd017d02	-0.031613357
121	0x3dcd7fb0	0.1003412
122	0xbd8896fb	-0.06669422
123	0xbd8e6fc1	-0.06954909
124	0xbd96d4de	-0.0736482
125	0x3caa537a	0.020791758
126	0x3e22193b	0.15829937
127	0xbd984786	-0.07435517

action_model._continuous_distribution.log_sigma f4 [1, 2]
0	0xbbea3ff6	-0.007148738
1	0xbb9ff7c8	-0.0048818327

action_model._continuous_distribution.mu.weight f4 [2, 128]
0	0xbcf096c8	-0.029368773
1	0xbd6ca056	-0.057770096
2	0xbd120582	-0.035649784
3	0xbdcc1c61	-0.0996635
4	0xbcbb5163	-0.022865957
5	0xbd56c39f	-0.052432653
6	0x3c925ae5	0.017865608
7	0x3c29e1f9	0.0103688175
8	0xbdbd13bf	-0.09232282
9	0x3df4463f	0.11927461
10	0xbca518e1	-0.020153465
11	0x3c7348d8	0.01484891
12	0x3dd3e9b0	0.10347307
13	0xbd84aee4	-0.0647867
14	0x3bbba410	0.005726345
15	0xbd3ed400	-0.046588898
16	0x3d289db8	0.041166037
17	0xbd7eaaf0	-0.062174737
18	0xbd381323	-0.044940125
19	0x3a8d9a40	0.0010803416
20	0x3d83981d	0.06425498
21	0x3d136918	0.035988897
22	0xbd99598a	-0.07487781
23	0x3d67ba17	0.056573953
24	0xbc3cc2dd	-0.011521068
25	0xbcb6e4d5	-0.022325912
26	0xbc9fcea9	-0.019507723
27	0x3c9224fb	0.0178399
28	0xbb6c5fe8	-0.0036067907
29	0xbd649930	-0.055810153
30	0xbdbb7ab6	-0.09154265
31	0xbde7efe1	-0.1132505
32	0xbd9c0f0c	-0.076200575
33	0xbca97573	-0.020685887
34	0xbc89a1bb	-0.016800752
35	0x3d0b389c	0.033989534
36	0xbd210cce	-0.039318852
37	0xbdb2862b	-0.08716997
38	0x3cbf485f	0.023349939
39	0xbd9a1f28	-0.07525474
40	0x3cc438c5	0.023952851
41	0xbd098fee	-0.033584528
42	0x3cb06622	0.021533076
43	0x3df1764e	0.11790143
44	0x3b988c48	0.0046553947
45	0x3d4e1f76	0.050322972
46	0xbd98df15	-0.074644245
47	0xbbae6e12	-0.00532318
48	0x39e230a6	0.00043142325
49	0x3cc2772a	0.023738462
50	0xbc6433fe	-0.0139284115
51	0xbdfc7850	-0.12327635
52	0xbdc9d2d7	-0.09854668
53	0x3c50c281	0.012741686
54	0xbde75d0b	-0.112970434
55	0x3dcaf687	0.099103026
56	0xbdffcdaa	-0.12490399
57	0x3d328775	0.043586213
58	0x3c67abd9	0.014140093
59	0xbbd010fa	-0.00634968
60	0x3dc31601	0.09525681
61	0x3de54e29	0.111965485
62	0xbdab10c9	-0.08352811
63	0xbc8c03c0	-0.017091632
64	0x3dc64b4c	0.096823305
65	0x3d36b6dd	0.044607986
66	0x3c21e10a	0.009880314
67	0xbda1983b	-0.07890364
68	0x3cc63bad	0.024198378
69	0x3c3ac302	0.011399033
70	0x3bc047f5	0.005867953
71	0x3d1407ef	0.03614038
72	0x3d37e630	0.04489726
73	0x3cba20e2	0.022720758
74	0xbd1b9330	-0.037982166
75	0x3c626396	0.013817688
76	0x3c0b47f2	0.00850104
77	0xbd18b2e5	-0.037279982
78	0x3d6a28e4	0.057167903
79	0x3c7ededd	0.015556064
80	0x3cbcb0af	0.023033468
81	0x3d711713	0.058859896
82	0xbc2f143c	-0.010685977
83	0x3dae9c53	0.0852591
84	0xba96612f	-0.0011473055
85	0xbd03f1d5	-0.03221305
86	0xbdafb4b3	-0.085793875
87	0xbc24a9cc	-0.010050248
88	0xbdc9e914	-0.09858909
89	0xbd11b59c	-0.035573587
90	0xbd630f2d	-0.055434395
91	0xbc8adddc	-0.016951494
92	0xbdc0f7d4	-0.094222695
93	0x3c481cbe	0.012213884
94	0x3d082cce	0.033245854
95	0xbc26b0e7	-0.010174013
96	0xbdb7b697	-0.08970373
97	0xbcc1c97a	-0.023655642
98	0xbd8ac5f2	-0.06776036
99	0xbd2a5859	-0.04158816
100	0xbcea16ab	-0.028575262
101	0xbc894749	-0.016757624
102	0xbc60252f	-0.01368074
103	0xbc5df720	-0.013547689
104	0x3d131b54	0.035914734
105	0x3c5454fe	0.012959717
106	0xbb678a5c	-0.0035330271
107	0x3db04b20	0.08608079
108	0xbdc35126	-0.09536962
109	0x3d0778d0	0.0330742
110	0x3bb9dc29	0.005671997
111	0xbd4a9a1d	-0.04946338
112	0xbcfda81f	-0.030963955
113	0x3d776c1f	0.060405847
114	0xbdc0ffe0	-0.09423804
115	0x3dad2a57	0.08455341
116	0xbd65c5d2	-0.05609686
117	0xbc6bef27	-0.01440028
118	0xbd84c1f5	-0.06482307
119	0xbda887c8	-0.08229023
120	0xbc1366e2	-0.008996697
121	0x3d45be8c	0.048277423
122	0xbc929b75	-0.017896393
123	0xbd067021	-0.03282178
124	0xbcc3675e	-0.023853
125	0xbc7eeb22	-0.01555899
126	0x3de4a082	0.11163427
127	0xbd2d235c	-0.04227005
128	0x3c6c05e2	0.014405699
129	0x3b8256c4	0.0039776284
130	0xbc89363f	-0.0167495
131	0x3cd0aded	0.02547356
132	0xbbb5feda	-0.0055540623
133	0x3a0b2329	0.00053076685
134	0xbb0f2795	-0.002184366
135	0x3b93cfc1	0.00451085
136	0x3c1e8554	0.009675343
137	0xbb1913ae	-0.0023357677
138	0x3bb506bd	0.005524485
139	0x3c20dd84	0.009818438
140	0xbb23f6ae	-0.0025018859
141	0xbc409607	-0.011754519
142	0xbc671529	-0.014104166
143	0x3d574b68	0.052562147
144	0xbc5fe31b	-0.013664986
145	0xbc3213b0	-0.010868952
146	0x3aaf723b	0.0013385484
147	0x3ccbf26c	0.02489587
148	0x3d048c09	0.03236011
149	0xbc3a5c23	-0.011374506
150	0x3b8d3cea	0.00431024
151	0x3aae3685	0.0013291395
152	0x3bc67a0d	0.00605703
153	0xbc4b9092	-0.012424605
154	0x3c912516	0.01771788
155	0x3c6ffef8	0.014648192
156	0x3d0b6da9	0.034040127
157	0xbbcafaa4	-0.0061944295
158	0x3ce48f5c	0.02790039
159	0xbcd5a2d3	-0.026078617
160	0xbb9afe86	-0.0047300486
161	0x3c19e5f9	0.009393209
162	0x3c50f86c	0.012754541
163	0xbcaa4582	-0.020785097
164	0x3cd94898	0.026523873
165	0x3cc38d48	0.02387108
166	0xbc9f23fb	-0.019426337
167	0x3c1ab3dd	0.009442297
168	0x3b866d46	0.004102382
169	0x3d329ec7	0.043608453
170	0xbc2d391d	-0.010572699
171	0xbc28421e	-0.01026967
172	0x3d169561	0.036763553
173	0xbcc0b890	-0.023525506
174	0xbcc1943c	-0.023630254
175	0x3b7f4c8b	0.0038955535
176	0xbb6e5a5e	-0.003636978
177	0x3c2b19ac	0.010443132
178	0x3cc85ac4	0.024457343
179	0xbc6ec548	-0.014573403
180	0x3cf99740	0.03046763
181	0xbb56e438	-0.0032789838
182	0x3c017302	0.007900955
183	0xbc013b06	-0.007887607
184	0xbb986878	-0.0046511255
185	0xbb3e20ac	-0.0029011173
186	0xbbf0b76f	-0.0073460857
187	0x3d026806	0.031837486
188	0xbc52e657	-0.0128723
189	0x3a2e87d0	0.0006657811
190	0x3cde74a2	0.027155224
191	0xbb0fc03a	-0.0021934644
192	0x3aca85c5	0.0015451243
193	0x3c876d00	0.016531467
194	0x3c217518	0.0098545775
195	0x3d0c7ac0	0.03429675
196	0xbc239249	-0.009983608
197	0xbcba2631	-0.02272329
198	0xbc4acae1	-0.012377472
199	0xbc40880f	-0.011751189
200	0x3c458d4e	0.012057615
201	0x3aacceb4	0.0013184161
202	0xbc2a0eae	-0.0103794765
203	0x3cc44115	0.023956815
204	0x3c8b6dc2	0.01702011
205	0xbd1a23e3	-0.03763188
206	0x3c513da2	0.012771042
207	0xbbcd9068	-0.006273318
208	0xbbe2033f	-0.0068973596
209	0xbcdd31df	-0.02700132
210	0xbb0491ef	-0.0020228585
211	0x3af32658	0.0018550856
212	0x3c2a94d1	0.010411457
213	0x3c423de6	0.011855578
214	0x3c32b33a	0.010906989
215	0xbc134c25	-0.008990322
216	0x3c938c9d	0.018011386
217	0xbca94f28	-0.020667627
218	0x3c4538ba	0.01203745
219	0x3d16d761	0.036826495
220	0x3c71140a	0.01471425
221	0x3a7e63f6	0.00097042264
222	0xba8f034c	-0.0010911017
223	0x3d07d948	0.0331662
224	0xbc031e87	-0.008002884
225	0x3c370a2e	0.011171861
226	0xba90ac4c	-0.0011037677
227	0xba5f18fb	-0.0008510497
228	0x3d0a91cb	0.033830445
229	0xbc7aa77b	-0.0152987195
230	0x3c064e98	0.008197449
231	0x3aca2735	0.0015423062
232	0x3c4f77f4	0.012662876
233	0xbc55451f	-0.013016968
234	0x3ca67e35	0.020323852
235	0xbc2d7fa0	-0.01058951
236	0x3bcc97dc	0.006243689
237	0x3bb932d8	0.005651813
238	0x3c47d972	0.012197839
239	0x3c2737a2	0.010206135
240	0x3c9945b9	0.018710004
241	0xbd140ae1	-0.036143187
242	0x3c046254	0.008080084
243	0x3bd2b2b4	0.0064299945
244	0x3ce31b8c	0.027723096
245	0xbc16cdcc	-0.009204339
246	0x3d4cecf1	0.050030652
247	0x3c122ed5	0.008922298
248	0x3d1d1c24	0.038356915
249	0xbb880e28	-0.004152078
250	0x3ba88dd6	0.0051438613
251	0xbc1948b2	-0.009355711
252	0x3c71cee0	0.0147587955
253	0x3cdad7e6	0.026714277
254	0xbc06256d	-0.008187634
255	0x3c35cfc1	0.011096896

action_model._continuous_distribution.mu.bias f4 [2]
0	0x3dc7e46b	0.09760364
1	0xbc451dd9	-0.012031042
